SD_input_conv_weight_bias.pth (torch, 48559 bytes, 2 tensors)

weight f4 [320, 4, 3, 3]
0	0xbd016f73	-0.031600427
1	0x3db30ed7	0.08743065
2	0x3dc215bb	0.09476801
3	0xbd076b15	-0.033061106
4	0xbe66a137	-0.22522436
5	0x3e140b29	0.14457382
6	0xbcd1d897	-0.025615973
7	0xbc9d2878	-0.019184336
8	0x3d03888d	0.032112647
9	0x3d6df25e	0.058092467
10	0xbdb36045	-0.08758596
11	0xbbb3ed55	-0.0054909387
12	0x3e50d31b	0.2039303
13	0xbe0c2522	-0.1368604
14	0xbc4b0e55	-0.012393554
15	0x3c115278	0.00886976
16	0xbb0f2624	-0.0021842802
17	0xbc046be8	-0.0080823675
18	0x3cfa06a0	0.030520737
19	0xbc5876c2	-0.013211908
20	0x3d2c9082	0.04213
21	0xbcc7d46a	-0.02439328
22	0x3d8fd835	0.0702366
23	0x3dabd342	0.083899036
24	0x3a95d608	0.0011431584
25	0xbc137a7a	-0.009001369
26	0xbd1bb74f	-0.038016614
27	0x3cbc04a8	0.022951439
28	0xbd4607cc	-0.04834728
29	0x3d3bcddd	0.045850623
30	0x3d719469	0.058979426
31	0xbe17f407	-0.14839183
32	0x3db7f465	0.089821614
33	0x3c6e787b	0.014555092
34	0xbcc2dd3f	-0.023787139
35	0x3d3ccc71	0.046093408
36	0x3bc9cdb1	0.0061585535
37	0xbcde422a	-0.027131159
38	0xbd4d370d	-0.05010133
39	0x3aa00bb9	0.0012210525
40	0x3d1bddbb	0.038053256
41	0x3dddd6e1	0.108320005
42	0xbc2c2897	-0.010507724
43	0x3c806ac7	0.015675915
44	0x3caf88b0	0.021427482
45	0x3b2f00c1	0.002670333
46	0x3c381137	0.011234573
47	0xbc50543b	-0.012715395
48	0xba064728	-0.00051222974
49	0x3db4a104	0.08819774
50	0x3c39102a	0.011295358
51	0x3a995063	0.0011696931
52	0x3d429ceb	0.04751293
53	0x3d1292b5	0.035784442
54	0x3b913e3a	0.004432467
55	0x3d800abe	0.06252049
56	0x3c8fa444	0.017534383
57	0x3d12933f	0.035784956
58	0xbe6af8bb	-0.22946446
59	0x3cddbc93	0.027067458
60	0x3cb1c595	0.02170066
61	0xbd85a67b	-0.06525894
62	0x3c67f282	0.014156939
63	0xbcd5797d	-0.026058907
64	0xbd441af1	-0.047877256
65	0x3c83deda	0.016097475
66	0xbcb4e096	-0.022079747
67	0x3daa9b92	0.08330454
68	0x3c049054	0.008091051
69	0xbcd2b2c4	-0.025720008
70	0x3c72636b	0.014794211
71	0xbced42ad	-0.028962458
72	0xbd8593a6	-0.06522302
73	0xbdcf2973	-0.10115328
74	0xbcfa7aa6	-0.030576061
75	0x3d2061a7	0.03915563
76	0x3d5f6b19	0.054545496
77	0xb96f2c1b	-0.00022809247
78	0x3d156f65	0.036483187
79	0x3d8a2730	0.06745756
80	0x3d26d6a9	0.04073206
81	0xbc82ca53	-0.015965616
82	0x3da40d90	0.08010399
83	0x3d2d9dbf	0.042386767
84	0x3cd78171	0.02630684
85	0xbdbc9611	-0.092083104
86	0xbd6351d0	-0.055497944
87	0xbbf60bce	-0.0075087314
88	0x3c9d6278	0.019211993
89	0xbbddc4d1	-0.006767847
90	0xbc02ee48	-0.007991381
91	0x3d9f2ab6	0.07771818
92	0xbc83808d	-0.016052509
93	0xbd8dbf4c	-0.069212526
94	0x3e5b3ef6	0.21410736
95	0xbce2e6b3	-0.027697897
96	0xbb375d87	-0.002797933
97	0xbdb89965	-0.09013633
98	0xbc1b8ccc	-0.009494018
99	0xbc037d52	-0.008025484
100	0xbbebd78e	-0.007197327
101	0xbbbd92ef	-0.005785338
102	0xbc394f8b	-0.011310468
103	0x3d8376f3	0.06419172
104	0x3d850a56	0.06496112
105	0xbd38a760	-0.045081496
106	0x3ccabaa5	0.024747202
107	0xbcc749e2	-0.024327222
108	0xbd2fdbe6	-0.04293432
109	0xbd316ae3	-0.043314826
110	0xbd730976	-0.059335195
111	0xbd724d67	-0.059155848
112	0x3e2b1b90	0.16709733
113	0xbdc55c15	-0.09636704
114	0xbcfce4db	-0.030870846
115	0xbd5b711a	-0.05357466
116	0xbd0c9281	-0.034319405
117	0x3a14038c	0.00056462805
118	0x3d6bf642	0.057607897
119	0x3c756f5e	0.014980165
120	0x3b935530	0.004496239
121	0x3e4176d9	0.18892993
122	0xbcc20687	-0.023684753
123	0x3ce5f96a	0.028073031
124	0xbe40fdcd	-0.18846817
125	0x3d61f97b	0.055169564
126	0x3ce6b199	0.028160857
127	0x3c80fd32	0.015745733
128	0x3ce366e5	0.027759025
129	0xbc24f6c0	-0.010068595
130	0x3de5367c	0.11192033
131	0xbdb9ece0	-0.090783834
132	0x3c2a7c2a	0.01040558
133	0xbdd1ba6f	-0.102406375
134	0x3c9348a7	0.01797898
135	0xbc98fc24	-0.018674918
136	0xbdb58c46	-0.08864646
137	0x3b08b5c4	0.0020860294
138	0xbd4d537f	-0.050128456
139	0xbdd4424b	-0.10364207
140	0x3d9b4284	0.07581046
141	0x3c47c882	0.012193801
142	0x3e1d17d2	0.15341118
143	0xbd09f206	-0.033678077
144	0x3cdc294f	0.026875166
145	0xbcd3df09	-0.025863187
146	0xbd702352	-0.058627434
147	0xbc817555	-0.015803019
148	0x3daf1b4f	0.085501306
149	0xbd95cd4d	-0.07314549
150	0xbd2171ef	-0.039415296
151	0x3d1c8908	0.03821662
152	0x3c3fcd4c	0.011706661
153	0xbda38d45	-0.079859294
154	0xbd98a2aa	-0.07452901
155	0x3b680520	0.0035403445
156	0x3d53901c	0.051651105
157	0xbdd677ca	-0.10472067
158	0xbc82b6e2	-0.015956346
159	0x3dbf6c85	0.0934687
160	0x3dc18da3	0.09450843
161	0x3ca93961	0.020657243
162	0xbd41e525	-0.04733767
163	0xbdbdb7d5	-0.09263579
164	0xbcd2e642	-0.025744561
165	0x3cfef776	0.031123858
166	0xbd1a0acd	-0.037607957
167	0xbcafdd4c	-0.021467827
168	0x3d764ffa	0.060134865
169	0x3dfb6636	0.122753546
170	0x3cd1572a	0.025554258
171	0xbdd03bd1	-0.10167659
172	0xbe32c525	-0.17458017
173	0xbd58e27d	-0.05295037
174	0x3de31c62	0.11089398
175	0xbdbefa87	-0.09325128
176	0xbdcc8519	-0.09986324
177	0x3dc9f710	0.098615766
178	0x3e67b06d	0.22625895
179	0x3c228636	0.009919694
180	0x3bef04c7	0.0072942707
181	0xbcbbcd4d	-0.022925043
182	0xbbb50623	-0.005524413
183	0xbd13f8a0	-0.03612578
184	0xbc9ef20c	-0.019402526
185	0x3d3021fa	0.043001153
186	0x3c212d9b	0.009837533
187	0xbcafb6cc	-0.021449469
188	0x3b50f0a5	0.0031881717
189	0xbb08d804	-0.0020880708
190	0xbba5e7c5	-0.0050630295
191	0xbc3d42d5	-0.0115515785
192	0xbd0f8577	-0.03503939
193	0x3e01f3ae	0.12690613
194	0xbd3de9f2	-0.046365686
195	0x3d1ac32d	0.03778379
196	0xbd9719ee	-0.073779926
197	0x3b631b23	0.0034653626
198	0xbd0df81f	-0.034660455
199	0x3dcf9443	0.101357006
200	0xbd17a1ef	-0.037019666
201	0x3cdb9509	0.026804464
202	0x3e1a8f75	0.15093787
203	0x38e1ea92	0.00010772528
204	0xbd33eadc	-0.04392515
205	0x3ae66f5e	0.0017580797
206	0x3aab5a8d	0.0013073251
207	0x3c507562	0.012723299
208	0x3c17b6ac	0.009259861
209	0xbd07c827	-0.033149865
210	0x3dbd696c	0.09248623
211	0xbe5a9e70	-0.21349502
212	0xbd28550f	-0.041096743
213	0xbcaa14a3	-0.020761793
214	0x3ca8f175	0.020622948
215	0xbd37a623	-0.044836175
216	0x3dbdaea7	0.09261828
217	0x3ce36a35	0.027760604
218	0xbd68d3f0	-0.056842744
219	0x3cc00036	0.0234376
220	0x3d51ee1c	0.05125247
221	0xbd514377	-0.05108973
222	0x3dafe723	0.08589008
223	0xbd89e5a0	-0.067332506
224	0xbd6ac801	-0.057319645
225	0x3c051208	0.008121975
226	0x3cd3b566	0.025843333
227	0x3cd69f02	0.026198868
228	0xbd99948e	-0.07499038
229	0xbc7b862e	-0.015351815
230	0xbbf5c561	-0.007500336
231	0xbc01a3bb	-0.007912572
232	0xbd9fdf81	-0.07806302
233	0x3cd4d474	0.025980212
234	0x3d09b239	0.033617232
235	0xbdbdc8ce	-0.09266816
236	0x3d6220da	0.05520711
237	0x3e0638c9	0.131076
238	0xbd3df85b	-0.04637943
239	0xbdbd8110	-0.09253132
240	0x3d491dc5	0.049100656
241	0x3b3cd6ef	0.0028814634
242	0xbd31eba0	-0.0434376
243	0xbc3b94bb	-0.011449034
244	0x3c50f7e2	0.012754412
245	0xbc454c3d	-0.012042102
246	0xbbaebaec	-0.0053323414
247	0xbdc5e828	-0.09663421
248	0x3d81683a	0.06318708
249	0x3d2ccabe	0.042185538
250	0xbd5728bd	-0.052529085
251	0xbcc89978	-0.024487242
252	0xbb80c192	-0.0039293254
253	0xbd5de0bd	-0.054169405
254	0xbd0839ee	-0.03325837
255	0x3d5017c2	0.050803907

bias f4 [320]
0	0xbdc7dbc2	-0.09758712
1	0xbdddb353	-0.10825219
2	0x3dd791e4	0.10525873
3	0x3c9e489b	0.01932173
4	0x3d10b6bf	0.03533053
5	0xbd5052ef	-0.05086034
6	0xbd90ce6f	-0.07070624
7	0x3d75975f	0.05995881
8	0xbc79133b	-0.015202339
9	0x3d054f22	0.03254617
10	0xbda8b30c	-0.082372755
11	0xbcf62514	-0.030046977
12	0x3dd9085e	0.10597299
13	0x3dbabcc9	0.09118039
14	0xbd985de6	-0.07439785
15	0xbdc1a7c0	-0.09455824
16	0xbddb0845	-0.10694937
17	0x3d631839	0.055443022
18	0x3d0dc08b	0.03460745
19	0x3dacc519	0.08436031
20	0xbd7187c0	-0.058967352
21	0x3d545c18	0.05184564
22	0xbd588756	-0.05286344
23	0x3d51ae44	0.051191583
24	0x3d589b79	0.052882645
25	0xbc447e0b	-0.011992942
26	0x3d8ef2cf	0.06979906
27	0xbd88ad88	-0.066737235
28	0xbd811e23	-0.06304576
29	0x3d238bad	0.039928127
30	0xbd89efd1	-0.067351945
31	0x3d35447a	0.044254757
32	0x3db73160	0.089449644
33	0xbcd2dddd	-0.025740558
34	0xbb117b09	-0.0022198579
35	0x3dd196ca	0.10233839
36	0xbdc30220	-0.0952189
37	0x3da38405	0.07984165
38	0x3d42631f	0.04745781
39	0x3d45955f	0.048238155
40	0xbb4b79cf	-0.0031047945
41	0x3d1dd134	0.03852959
42	0xbd8fa2df	-0.07013487
43	0xbdd50d2c	-0.10402903
44	0x3d6bf233	0.057604026
45	0xbc76279c	-0.015024092
46	0x3c803c1c	0.015653662
47	0x3d315490	0.043293536
48	0xbdf4a636	-0.11945765
49	0xbdc5f890	-0.0966655
50	0xbdd1dce8	-0.10247213
51	0xbe0f5fb9	-0.14001359
52	0x3d819630	0.06327474
53	0x3d03cabe	0.032175772
54	0xbdd63533	-0.10459366
55	0x3e08c9ad	0.13358183
56	0x3c924839	0.017856704
57	0x3df66ec9	0.12032849
58	0x3cd5d7aa	0.026103813
59	0xbe0da3d6	-0.1383203
60	0x3ddfaf9c	0.10922167
61	0xbd48746d	-0.048939157
62	0xbd891f79	-0.06695456
63	0xbdae0296	-0.08496587
64	0x3d3b03a0	0.045657754
65	0xbdb832cb	-0.08994063
66	0x3dbbc1f2	0.091678515
67	0xbce2f94b	-0.027706763
68	0xbc6703d1	-0.014100031
69	0x3d9a14ad	0.07523475
70	0x3ca50780	0.020145178
71	0x3e0fcc7f	0.14042853
72	0xbddbfaf9	-0.107412286
73	0xbca1e740	-0.019763589
74	0xbdc38040	-0.09545946
75	0x3d28f560	0.041249633
76	0x3e0b22e1	0.13587524
77	0x3e288e50	0.16460538
78	0xbd21e8eb	-0.03952877
79	0x3e1002f6	0.1406363
80	0x3d3d3275	0.046190698
81	0xbde3283c	-0.110916585
82	0x3d3f68af	0.046730693
83	0xbdc11ea0	-0.094296694
84	0xbdbce8de	-0.092241034
85	0x3dbf6320	0.093450785
86	0x3d62f657	0.05541071
87	0x3df92d2b	0.12166818
88	0xbe06ec91	-0.1317618
89	0xbd9eaf31	-0.07748259
90	0x3e5ebec1	0.21752454
91	0x3e2b91a2	0.16754773
92	0x3ded8f73	0.115996264
93	0xbdb1cef3	-0.086820506
94	0xbe340f97	-0.17584072
95	0xbd7f21b1	-0.06228799
96	0xbddef5db	-0.10886737
97	0x3cd30241	0.02575791
98	0x3df2eb28	0.11861259
99	0xbd4d77b2	-0.05016298
100	0x3c899a16	0.016797107
101	0x3d941b35	0.07231752
102	0xbe0cdc9f	-0.13756035
103	0x3e125938	0.14291847
104	0xbe008bd8	-0.12553346
105	0x3dbeb727	0.09312277
106	0x3d1228bc	0.03568338
107	0x3d66df71	0.056365434
108	0xbdfbc350	-0.12293112
109	0x3dc62633	0.09675255
110	0xbd47f0fb	-0.0488138
111	0x3d8a7cca	0.06762083
112	0xbd7f1507	-0.062275913
113	0xbc84a775	-0.016193131
114	0xbd3f08e9	-0.046639357
115	0xbdc542c0	-0.09631872
116	0x3df7e7cc	0.121047586
117	0x3dcb82a6	0.099370286
118	0x3d11670f	0.035498675
119	0xbdb11a31	-0.08647574
120	0x3d20a827	0.039222863
121	0xbcd76429	-0.026292877
122	0xbd4b64db	-0.04965673
123	0xbdb66e72	-0.089077845
124	0xbca629fc	-0.020283692
125	0xbce4d5b7	-0.027933938
126	0x3da77050	0.08175719
127	0x3d8fa86f	0.07014548
128	0xbdb0f9e2	-0.08641411
129	0xbdc2bb6d	-0.09508405
130	0x3d7b48d1	0.06134874
131	0x3dab4160	0.08362079
132	0xbdac435f	-0.084112875
133	0x3db0fb76	0.08641712
134	0xbdc3e2c0	-0.095647335
135	0xbca61daa	-0.020277817
136	0x3d8c6b94	0.068564564
137	0x3d594e33	0.053053092
138	0x3d500a4f	0.05079108
139	0xbc52648a	-0.012841353
140	0x3d452d85	0.048139114
141	0xbc63471c	-0.013871934
142	0x3db7653e	0.08954857
143	0xbda15eb4	-0.07879391
144	0xbdd3d0dc	-0.10342571
145	0xbc2d7f56	-0.010589441
146	0xbddcf12f	-0.107881896
147	0x3e0f3c2c	0.13987797
148	0x3d723701	0.059134487
149	0x3e66ef72	0.22552279
150	0x3d8cb0f3	0.06869688
151	0x3de24459	0.110481925
152	0x3dc48337	0.0959534
153	0x3da76021	0.08172632
154	0xbdb2e213	-0.087345265
155	0xbc33fcd4	-0.010985572
156	0xbdb53bdc	-0.08849308
157	0x3d0f8c78	0.03504607
158	0xbc6143fc	-0.013749119
159	0xbdca49c1	-0.09877349
160	0x3d549a59	0.05190501
161	0xbcdbb47c	-0.02681946
162	0x3d550192	0.05200345
163	0xbc7d1f61	-0.015449376
164	0x3cb133b1	0.021631094
165	0x3dc04974	0.0938901
166	0xbd5d0cd5	-0.053967316
167	0xbc902d4f	-0.01759973
168	0xbcb8d789	-0.022563713
169	0x376aaaba	1.3987237e-05
170	0x3d79c0d0	0.060974896
171	0xbd197084	-0.03746082
172	0x3e00e9cc	0.12589186
173	0x3d19d066	0.03755226
174	0x3d8126f4	0.06306258
175	0xbdbf8643	-0.0935178
176	0xbcef03d1	-0.029176624
177	0xbda65357	-0.081213646
178	0x3d154b1e	0.03644859
179	0xbcbfd259	-0.023415731
180	0x3de2f52b	0.11081918
181	0x3b2085ef	0.0024493893
182	0x3da9ee95	0.08297459
183	0x3db07f82	0.0861807
184	0x3c33087a	0.010927314
185	0x3c6e23d9	0.014534914
186	0xbdefca48	-0.11708504
187	0xbd62239c	-0.05520974
188	0x3d8dcfa6	0.069243714
189	0xbd8a43ff	-0.067512505
190	0xbe13cb34	-0.14432985
191	0x3dbb0450	0.09131682
192	0x3e2d42f9	0.1692008
193	0xbe02738c	-0.1273939
194	0xbd94af1a	-0.072599605
195	0xbdf8efe4	-0.121551305
196	0xbc9012df	-0.017587123
197	0x3df4921d	0.119419314
198	0x3dfaddcd	0.122493364
199	0xbd8fe2ed	-0.070257045
200	0x3d952535	0.07282487
201	0x3bffe629	0.0078094197
202	0xbdcca717	-0.09992807
203	0xbb44526d	-0.0029956356
204	0x3dccc6c6	0.099988505
205	0xbd1fd8f7	-0.039025273
206	0xbdae293f	-0.08503961
207	0x3d64c5dd	0.05585276
208	0xbe212096	-0.15735087
209	0xbd55ea7c	-0.052225575
210	0x3d0edcfb	0.034878712
211	0xbde9db8b	-0.114188276
212	0x3d890404	0.06690219
213	0xbd19f9d9	-0.03759179
214	0x3dcec24d	0.10095654
215	0x3d253c34	0.040340617
216	0xbd9817a2	-0.074263826
217	0x3dba15ab	0.09086164
218	0x3da59040	0.08084154
219	0xbd20f65c	-0.039297447
220	0x3dcab070	0.09896934
221	0xbac9ddf2	-0.0015401228
222	0x3dc8cd58	0.09804791
223	0xbca0d779	-0.019633995
224	0x3da1e1e1	0.07904411
225	0xbe06662d	-0.13124914
226	0xbd4b1d66	-0.049588583
227	0xbdae09c4	-0.084979564
228	0xbc501e06	-0.012702471
229	0xbdafb058	-0.08578557
230	0x3d563352	0.052295037
231	0xbc85fd79	-0.016356217
232	0xbd274c0a	-0.040844
233	0xbdf01a33	-0.11723747
234	0x3d659692	0.0560518
235	0xbd916470	-0.07099235
236	0xbdf6bb3e	-0.12047432
237	0xbda3c6cd	-0.079969026
238	0x3d1f95c5	0.03896119
239	0x3e132bd7	0.14372192
240	0xbd8eb79e	-0.06968616
241	0x3d4dc32c	0.05023496
242	0x3c405089	0.011737951
243	0x3e04b7f4	0.12960798
244	0x3dd16bd1	0.102256425
245	0x3d852679	0.06501479
246	0x3dc1f1c6	0.09469943
247	0x3ddd67f3	0.10810842
248	0xbd1d7687	-0.038443115
249	0xbdfdc498	-0.12391013
250	0xbdb5e045	-0.08880667
251	0x3d836bb1	0.06417025
252	0x3e0fb282	0.14032939
253	0xbd0c4a3c	-0.034250483
254	0x3cd2ce2d	0.025733078
255	0x3dafb557	0.0857951
